Model: "sequential"
+--------------------------------------------------------------------------------------+
| Layer (type)                         | Output Shape                |         Param # |
|--------------------------------------+-----------------------------+-----------------|
| conv2d (Conv2D)                      | (None, 26, 26, 32)          |             320 |
|--------------------------------------+-----------------------------+-----------------|
| max_pooling2d (MaxPooling2D)         | (None, 13, 13, 32)          |               0 |
|--------------------------------------+-----------------------------+-----------------|
| conv2d_1 (Conv2D)                    | (None, 11, 11, 64)          |          18,496 |
|--------------------------------------+-----------------------------+-----------------|
| max_pooling2d_1 (MaxPooling2D)       | (None, 5, 5, 64)            |               0 |
|--------------------------------------+-----------------------------+-----------------|
| conv2d_2 (Conv2D)                    | (None, 3, 3, 64)            |          36,928 |
|--------------------------------------+-----------------------------+-----------------|
| flatten (Flatten)                    | (None, 576)                 |               0 |
|--------------------------------------+-----------------------------+-----------------|
| dense (Dense)                        | (None, 128)                 |          73,856 |
|--------------------------------------+-----------------------------+-----------------|
| dropout (Dropout)                    | (None, 128)                 |               0 |
|--------------------------------------+-----------------------------+-----------------|
| dense_1 (Dense)                      | (None, 10)                  |           1,290 |
+--------------------------------------------------------------------------------------+
 Total params: 130,892 (511.30 KB)
 Trainable params: 130,890 (511.29 KB)
 Non-trainable params: 0 (0.00 B)
 Optimizer params: 2 (12.00 B)
